models/neural_2layers_sigmoid.pth (torch, 3159 bytes, 5 tensors)

weight f4 [3, 1]
0	0x3fa998c2	1.3249743
1	0xbf948390	-1.160265
2	0xbfd43035	-1.6577212

bias f4 [3]
0	0xc0080031	-2.1250117
1	0x3fd2312e	1.6421258
2	0x4041366c	3.0189466

weight f4 [2, 3]
0	0x4065fa0a	3.5933862
1	0xbf69967d	-0.9124525
2	0xbeb412d8	-0.35170627
3	0x402d8fe1	2.7119067
4	0xc042f152	-3.045979
5	0xc026d6b5	-2.6068547

bias f4 [2]
0	0xbfaaa9f7	-1.3333119
1	0x3ec7dd89	0.39036205

weight f4 [1, 2]
0	0x400d7a95	2.2106068
1	0x4007979a	2.118628
