models/neural_2layers.pth (torch, 4055 bytes, 5 tensors)

weight f4 [20, 1]
0.7228312 0.7847937 -0.1810689 0.43671778 0.06987879 0.66371226 0.4125283 0.6314604
-0.6128714 -0.9704727 -0.6646801 -0.16046226 0.47104216 -0.974497 0.39267173 -0.75198233
-0.70715517 0.9633117 -0.9235686 0.72762346
00000000: 770b 393f 3de8 483f 206a 39be 7999 df3e
00000010: 9c1c 8f3d 0ce9 293f e936 d33e 64a7 213f
00000020: 24e5 1cbf e670 78bf 7a28 2abf 3850 24be
00000030: 702c f13e a378 79bf 450c c93e ea81 40bf
00000040: 1f08 35bf 989b 763f fe6e 6cbf 8845 3a3f

bias f4 [20]
-0.14954469 -0.24000636 -0.54904675 0.08439727 1.2116708 -0.18997842 -0.2321703 -1.3891501
-0.8349782 -0.4949516 0.1654621 -0.7197529 0.109937005 1.0955864 -0.86372054 0.01573801
1.5507168 -0.44289783 -0.21118116 0.76305693
00000000: 3e22 19be 3ac4 75be 548e 0cbf 7ad8 ac3d
00000010: 0718 9b3f b489 42be 0dbe 6dbe accf b1bf
00000020: 22c1 55bf 4c6a fdbe e66e 293e ba41 38bf
00000030: a726 e13d 2d3c 8c3f ca1c 5dbf 00ed 803c
00000040: e37d c63f 81c3 e2be e03f 58be b357 433f

weight f4 [10, 20]
0.12853333 -0.017624125 0.020038366 -0.20731856 -0.11036386 -0.035155937 -0.101394415 0.13928565
0.13299435 0.16949528 0.056455225 -0.18887544 0.20066631 0.15781271 -0.20927355 0.18752071
-0.0041374713 -0.16809441 0.14733472 0.12468594 0.096066296 0.12591991 -0.025895864 -0.15139577
-0.04896365 -0.21240619 0.16956547 0.20189962 0.07163611 0.12373528 -0.16985789 0.16217574
-0.16821802 -0.14220878 -0.0014114827 -0.19861811 -0.1590424 -0.21514697 0.09089574 -0.11406924
-0.07156935 0.0866724 -0.13525683 0.11064738 -0.15415862 0.087903656 0.11493577 0.87690306
-0.11985503 0.06161332 -0.15609418 0.15343535 -0.005089545 -0.19705157 0.37657157 -0.17600128
1.5181652 0.3590209 0.19632027 0.11792262 0.06816569 -0.1283134 -0.06862067 -0.06180902
0.06731713 0.09452155 0.037834406 0.08491203 -0.13534379 -0.07791066 0.08899906 0.014353961
-0.0915198 0.19232464 -0.088238105 0.06666428 -0.090200886 -0.13576561 -0.09536888 -0.16271909
0.28799894 0.11650973 0.11844289 0.028090676 -0.51973516 0.33145317 0.18397637 0.915632
0.13042596 0.1763992 0.22621572 -0.1458731 0.07329522 0.17482808 0.62365836 -0.1397723
1.2428616 0.44790605 -0.15553218 0.058709923 0.11636643 0.45562243 -0.0934723 -0.024481334
-0.20540783 0.45201507 0.38450798 0.8758542 -0.076852754 0.08428651 0.21204537 0.16841707
0.07208831 -0.052125383 0.7343742 0.19185466 1.32388 0.54183125 -0.11661683 -0.3354231
0.06412807 -0.05469376 0.20693743 -0.20679949 -0.0775512 -0.007387653 0.09719849 -0.15648694
0.097258955 0.06725663 0.22287267 0.1569154 0.14826226 0.0052549094 0.1637311 0.14823622
-0.207986 0.14485183 -0.12670395 -0.11266511 -0.057230636 0.178195 0.075306326 -0.029046357
-0.04645428 -0.13706726 0.082109034 0.20961949 -0.17098022 0.21286675 0.10053176 -0.21835151
-0.036456704 -0.12481193 -0.08139372 -0.11151306 0.07901558 -0.181303 0.064217746 0.18778032
0.101377964 -0.18394846 0.16797572 -0.24220154 0.12406489 0.07237921 -0.061709817 0.071954675
-0.009648308 0.0010930896 0.0587068 0.21807185 0.17539659 -0.50621283 0.026085153 0.1951319
0.14515023 -0.11203744 -0.05304481 0.1141374 0.2663132 0.58617103 0.038900495 -0.101507485
-0.6949245 0.21817468 0.49528274 0.8734615 0.07800883 0.20939621 0.12239386 -0.20688722
-0.056317553 0.0380224 0.74899864 0.08219585 1.331988 0.60001 -0.082099006 -0.31961086
00000000: 3e9e 033e 7860 90bc 8027 a43c 514b 54be
00000010: 7306 e2bd acff 0fbd e0a7 cfbd e6a0 0e3e
00000020: ac2f 083e 2c90 2d3e 983d 673d 9068 41be
00000030: 787b 4d3e a899 213e ce4b 56be 6e05 403e
00000040: a093 87bb f120 2cbe eade 163e 585b ff3d
00000050: 68be c43d 26f1 003e 9023 d4bc 7e07 1bbe
00000060: 1c8e 48bd 0281 59be 92a2 2d3e c6be 4e3e
00000070: f4b5 923d ec68 fd3d 3aef 2dbe 6611 263e
00000080: 5841 2cbe 2e9f 11be 8001 b9ba 8c62 4bbe
00000090: 03dc 22be 7d4f 5cbe 8c27 ba3d 229d e9bd
000000a0: f492 92bd 4d81 b13d c480 0abe 189b e23d
000000b0: c2db 1dbe d506 b43d 7263 eb3d b87c 603f
000000c0: 8e76 f5bd 405e 7c3d 27d7 1fbe 281e 1d3e
000000d0: 33c6 a6bb e3c7 49be fdcd c03e ae39 34be
000000e0: 3d53 c23f 96d1 b73e 2e08 493e 6a81 f13d
000000f0: 749a 8b3d 9764 03be fe88 8cbd 742b 7dbd
00000100: 90dd 893d 8494 c13d 40f8 1a3d 5ce6 ad3d
00000110: 9097 0abe a08f 9fbd 2445 b63d e02c 6b3c
00000120: bc6e bbbd c0f0 443e 2eb6 b4bd 4887 883d
00000130: 3ebb b8bd 2406 0bbe c250 c3bd d59f 26be
00000140: 9974 933e a79c ee3d 3092 f23d 6b1e e63c
00000150: 5d0d 05bf 3bb4 a93e 4d64 3c3e dc66 6a3f
00000160: 628e 053e fea1 343e 18a5 673e c25f 15be
00000170: ce1b 963d 2206 333e 13a8 1f3f 7820 0fbe
00000180: 1716 9f3f f153 e53e d443 1fbe d179 703d
00000190: 8651 ee3d 5847 e93e 686e bfbd 148d c8bc
000001a0: 6e56 52be 856e e73e 3bde c43e fb37 603f
000001b0: fa64 9dbd 689e ac3d 6c22 593e 8675 2c3e
000001c0: 09a3 933d 6d81 55bd f3ff 3b3f 8c75 443e
000001d0: e674 a93f 74b5 0a3f ced4 eebd 94bc abbe
000001e0: 9455 833d 9006 60bd 68e7 533e 3fc3 53be
000001f0: 2ad3 9ebd 2014 f2bb 0010 c73d 1d3e 20be
00000200: b42f c73d d8bd 893d bc38 643e 6eae 203e
00000210: 10d2 173e 6031 ac3b 20a9 273e 3ccb 173e
00000220: 48fa 54be 0a54 143e aebe 01be f7bc e6bd
00000230: ac6a 6abd c078 363e 343a 9a3d a0f2 edbc
00000240: d846 3ebd 5c5b 0cbe c828 a83d 7ea6 563e
00000250: 7015 2fbe bef9 593e 98e3 cd3d 8a97 5fbe
00000260: a053 15bd 669d ffbd c0b1 a6bd f660 e4bd
00000270: ecd2 a13d 7ea7 39be 9884 833d 7c49 403e
00000280: 409f cf3d fc5c 3cbe d401 2c3e ae03 78be
00000290: bc15 fe3d 8d3b 943d 6fc3 7cbd f95c 933d
000002a0: f013 1ebc 0046 8f3a 8b76 703d 3a4e 5f3e
000002b0: 2a9b 333e 2a97 01bf 88b0 d53c a8d0 473e
000002c0: 43a2 143e e373 e5bd 8445 59bd dfc0 e93d
000002d0: 345a 883e 4e0f 163f 2056 1f3d 28e3 cfbd
000002e0: 92e6 31bf 2f69 5f3e b395 fd3e 2c9b 5f3f
000002f0: 18c3 9f3d f66b 563e a2a9 fa3d 3eda 53be
00000300: 3cad 66bd 60bd 1b3d 60be 3f3f 4c56 a83d
00000310: 957e aa3f 419a 193f 8623 a8bd 09a4 a3be

bias f4 [10]
-0.21859406 0.043366164 -0.25287446 -0.020996511 -0.20689783 -0.59862155 -0.20636398 -0.2002795
-0.26046327 -0.6819533
00000000: 1fd7 5fbe b8a0 313d c378 81be e000 acbc
00000010: 06dd 53be 433f 19bf 1451 53be 1216 4dbe
00000020: 715b 85be 7e94 2ebf

weight f4 [1, 10]
0.24834451 0.22888091 0.7151225 -0.23910096 0.46581724 0.5047916 0.075757384 -0.26651642
-0.19517343 0.70645046
00000000: 064e 7e3e c25f 6a3e 4512 373f e2d6 74be
00000010: 997f ee3e 063a 013f b026 9b3d d774 88be
00000020: 8bdb 47be f0d9 343f
