models/neural_3layers.pth (torch, 3351 bytes, 5 tensors)

weight f4 [10, 1]
-0.9703783 -0.82329905 0.33084685 1.2888058 0.7245412 1.0178399 -0.59465563 0.3432942
-0.6126522 0.41421214
00000000: b66a 78bf bac3 52bf c264 a93e 97f7 a43f
00000010: 887b 393f 9448 823f 5a3b 18bf 42c4 af3e
00000020: c6d6 1cbf 9d13 d43e

bias f4 [10]
0.62499034 1.7536458 0.9928177 -0.009131748 -1.5318165 -1.0504749 -0.27488387 -0.26720944
-0.5696331 1.0494353
00000000: 5eff 1f3f 7777 e03f 4d29 7e3f 549d 15bc
00000010: 9012 c4bf f675 86bf 94bd 8cbe adcf 88be
00000020: 7ad3 11bf e553 863f

weight f4 [5, 10]
-0.009845555 -0.22198884 -0.024130493 -0.1742295 0.059149653 -0.07581934 0.30272463 -0.03871745
-0.20580216 -0.12530515 0.22986856 -0.26140898 -0.095652774 0.06267775 -0.10088509 -0.05249809
-0.30576393 -0.29150775 0.16525438 0.08772186 0.25384596 1.1549039 -0.024864407 0.27636674
1.2031715 0.8971688 0.08951014 0.58091974 -0.031321704 -0.11406146 -0.20395187 1.0331476
-0.19128978 0.32694533 1.0062395 0.8756999 -0.06668462 0.5014412 0.0314959 -0.12220956
-0.26047206 0.7533412 -0.23433967 0.363897 1.1347952 0.70500165 -0.24569109 0.45673585
-0.31131637 -0.5749187
00000000: 404f 21bc 0b51 63be 50ad c5bc 3869 32be
00000010: e846 723d 2c47 9bbd b9fe 9a3e 3096 1ebd
00000020: cdbd 52be fe4f 00be aa62 6b3e 66d7 85be
00000030: 9ae5 c3bd 315d 803d d89c cebd 3d08 57bd
00000040: 178d 9cbe 8140 95be 7238 293e 85a7 b33d
00000050: 19f8 813e e4d3 933f 71b0 cbbc f17f 8d3e
00000060: 8601 9a3f dbac 653f 1851 b73d 28b7 143f
00000070: 304b 00bd 0e99 e9bd c2d8 50be 2e3e 843f
00000080: 78e1 43be 6165 a73e 75cc 803f de2d 603f
00000090: f291 88bd 735e 003f d801 013d 0149 fabd
000000a0: 985c 85be f8da 403f bdf6 6fbe b550 ba3e
000000b0: f840 913f fd7a 343f 7296 7bbe 48d9 e93e
000000c0: dc64 9fbe df2d 13bf

bias f4 [5]
0.29575017 -0.064030185 -0.12262877 -0.5131061 -0.5476846
00000000: 916c 973e 4222 83bd cb24 fbbd ec5a 03bf
00000010: 0f35 0cbf

weight f4 [1, 5]
0.19902188 -0.31440645 0.7835364 0.8314212 0.8327372
00000000: 64cc 4b3e e2f9 a0be d795 483f 05d8 543f
00000010: 442e 553f
