models/neural_2layers_sigmoid3.pth (torch, 4055 bytes, 5 tensors)

weight f4 [20, 1]
000000 4d 48 f3 be 1e c1 2e 3f 67 fb 00 bf 82 a5 a1 be
       -0.475161 0.68263423 -0.5038361 -0.31571585
000010 d6 d3 13 3f 97 a0 29 bf c5 32 20 3f 5c 85 9c 3f
       0.5774511 -0.66260666 0.6257747 1.2228198
000020 c1 21 65 3f 79 27 52 bf cf f5 0d bf fd 0a bd be
       0.8950463 -0.8209148 -0.554532 -0.36922446
000030 97 bb af be f3 4e 80 bf 07 de 35 3f 0b 8e 50 3f
       -0.34322807 -1.0024093 0.7104191 0.8146674
000040 9a a2 2e 3f ec 40 5d 3f 82 62 33 3f cf 05 64 3f
       0.6821686 0.8642719 0.70072186 0.89071363

bias f4 [20]
000000 fa 41 c5 3f a4 ca 8c bf 86 0f a8 3f d9 20 08 3e
       1.541076 -1.0999341 1.3129737 0.1329378
000010 45 02 1a bf 54 38 a7 3f 6e e2 61 bf c7 cc f4 3e
       -0.60159713 1.3064065 -0.8823613 0.47812483
000020 5f 4e e4 bf 79 50 ce 3f a8 46 3e 3f 1f 04 4b 3f
       -1.7836417 1.6118308 0.7432656 0.79303163
000030 64 51 7b 3f 1a a5 0c 40 eb e0 47 be 4a e3 c3 bf
       0.9817107 2.197577 -0.19519393 -1.5303738
000040 22 e9 8a bf 43 06 da bf 65 0f 94 bf 52 6e e4 bf
       -1.0852396 -1.7033161 -1.1567198 -1.7846167

weight f4 [10, 20]
000000 b7 c0 22 3e 94 6b c6 3e 99 00 5e bd d2 94 05 be
       0.15893827 0.3875395 -0.05419979 -0.13045052
000010 b0 cd 51 3f 03 69 ce bc cb 86 81 3f a2 c4 1f 3e
       0.8195448 -0.025196558 1.011926 0.15602353
000020 67 f0 64 3f cf 03 1d 3e 92 64 fa be 87 49 69 3e
       0.89429325 0.15333484 -0.48904854 0.22781955
000030 18 3d e4 3d f8 cc 4f bd 05 5b 61 3f 97 6f 23 3f
       0.11144465 -0.050732583 0.8802951 0.6384215
000040 41 58 aa 3e fc df 16 3f 3e 65 55 3f eb 7d f9 3e
       0.33270457 0.58935523 0.8335761 0.4872888
000050 95 d0 13 3f b5 fe 58 bf 7e ea 82 3e 42 0d 45 3f
       0.57740146 -0.8476365 0.25569528 0.76973355
000060 66 c6 fd 3e cc bf 92 3f 1d dd c3 be 75 fe c8 3e
       0.49565428 1.1464782 -0.38254634 0.39256635
000070 1d 8f a0 bf 79 18 c4 3e 87 b1 26 3f 25 88 fe 3e
       -1.2543675 0.3829992 0.65114635 0.49713245
000080 43 ee 80 3f 3b de da 3e 85 4c 15 3f 3c 85 88 bf
       1.0072712 0.42747673 0.58319885 -1.066566
000090 fd 4b 26 bf fa df 8d bf d8 81 0c bf f2 41 97 bf
       -0.649597 -1.1083977 -0.54885626 -1.1817
0000a0 d7 2e 0f 3f 80 89 94 be d0 ca 4e 3f c8 f1 44 3f
       0.55930847 -0.29011154 0.8077822 0.7693143
0000b0 aa de c2 be a3 af f2 3e 09 1e 4f bf 9a e4 5f 3f
       -0.38060504 0.47399625 -0.80905205 0.87458193
0000c0 1c 55 9e bf f5 02 68 3f d3 7d 5a 3f 7b 3e 7d 3f
       -1.2369723 0.9062951 0.8534824 0.9892346
0000d0 a9 1f ec 3d 50 54 8c 3f 1f 95 fb 3d 7a f8 4d bf
       0.11529476 1.096323 0.12284302 -0.8045727
0000e0 a9 69 c0 be 35 41 36 bf a6 6a 88 bf 4a e0 9c bf
       -0.37580612 -0.7119325 -1.0657547 -1.2255948
0000f0 c5 67 9e be 5e c1 80 3f 5c ab eb be b0 42 de be
       -0.30938545 1.0059011 -0.46029174 -0.43410254
000100 f2 7e 90 bc cd 5a 58 bf 7c f5 13 3f d9 ee 4e bd
       -0.017638657 -0.8451355 0.57796454 -0.05052075
000110 63 40 1c 3f c9 6b e3 be cd 4d 03 bf 5c 1d cb be
       0.61035746 -0.4441817 -0.5129059 -0.39670837
000120 06 59 21 bf 7a 60 79 bf 4c 5b e8 be cc 0f ff 3e
       -0.63026464 -0.97412837 -0.45382154 0.4981674
000130 d0 48 3f 3f a2 05 53 3f 02 f4 13 3f c8 d7 09 3f
       0.7472048 0.8243047 0.577942 0.5384488
000140 24 a8 51 3f ff 18 66 bf b2 2d 38 3e 0d 30 40 3f
       0.8189719 -0.8988189 0.17986181 0.7507332
000150 8a 9b 77 be 20 db bb 3e 2b b7 e5 bd 78 12 15 3f
       -0.24180427 0.36690617 -0.11216577 0.58231306
000160 31 e2 53 bf 3c c6 5f 3f 2b 2a 85 3f 79 f6 e5 3e
       -0.82767016 0.87411857 1.0403494 0.44914606
000170 1a 60 8e 3e 39 0c 25 3f 73 77 72 3e 94 e7 78 bf
       0.27807695 0.64471775 0.23678379 -0.9722836
000180 a6 4f 08 bf 0c 5f 94 bf d1 54 43 bf 55 f4 4a bf
       -0.53246534 -1.1591506 -0.76301295 -0.7927907
000190 5b 88 7b 3f 8c 06 00 bf 49 43 5e 3f c4 45 18 3f
       0.98254937 -0.5000999 0.8682142 0.59481454
0001a0 30 eb 1c bf 6d 80 68 3f 52 2d 5e bf f6 cc 2e 3f
       -0.6129637 0.9082096 -0.86787903 0.68281496
0001b0 00 3b 93 bf d4 b1 93 3f cf e9 33 3f dd a1 e4 3e
       -1.150238 1.1538644 0.7027864 0.44654742
0001c0 cc 51 c7 3e a3 5d 95 3f 1d 40 32 3e d5 83 a3 bf
       0.38929594 1.1669201 0.1740727 -1.2774607
0001d0 fe a0 4a bf a2 fe f3 be 51 53 e1 be a2 81 a9 bf
       -0.79151905 -0.47655207 -0.44008878 -1.3242686
0001e0 93 67 5b bf 04 d0 8a 3f 69 ac 4f bf 7c 2e e5 be
       -0.85704917 1.0844731 -0.8112245 -0.44762027
0001f0 42 ea 15 3e 76 40 91 bf fc 99 6f 3e 55 12 41 bf
       0.14640144 -1.1347797 0.23398584 -0.754186
000200 bd 35 af 3f 04 ef 9d bf 82 35 04 bf 73 00 90 bf
       1.3688275 -1.2338567 -0.51644146 -1.1250137
000210 58 72 0f bf 8b 88 87 bf 66 e2 6d 3d 39 64 99 3f
       -0.5603385 -1.0588545 0.05807724 1.198371
000220 e9 4c 56 3f 13 50 9a 3f 0e 46 71 3f 49 4f a2 3f
       0.83711106 1.2055687 0.9424752 1.2680446
000230 53 12 94 3e 6a a1 58 3f 80 a0 ad be 93 00 ad bc
       0.2892023 0.846213 -0.33911514 -0.021118438
000240 19 a4 40 3e f5 48 f8 3d 6d e4 9b 3e 93 8b 19 3f
       0.18812598 0.121232904 0.30447713 0.599786
000250 dc 11 8c 3f 32 3e 70 3d 86 a1 c5 be ee c5 b6 3d
       1.094295 0.058653064 -0.38599795 0.08924471
000260 a3 1d 9d be 51 0f 8c bd bc 18 68 3f 76 fb 7c 3f
       -0.30686674 -0.06838859 0.9066274 0.988212
000270 3e 43 3a 3f 28 1f f3 3e ba 8e b9 3e 84 4d 04 3f
       0.72758853 0.47484708 0.36241704 0.5168078
000280 c4 47 47 3f 5c 19 4a bf 1e 48 2b 3f ee 8b 13 3f
       0.7784388 -0.78944945 0.6690692 0.5763539
000290 17 a6 94 be 67 f6 6b 3f 1e 0a e2 be 9f 60 f4 3e
       -0.29032966 0.92172855 -0.44148344 0.47729966
0002a0 f3 35 74 bf a9 27 1e 3f f5 54 53 3f 43 cd 1d 3f
       -0.9539482 0.61779267 0.8255151 0.6164133
0002b0 c5 34 81 3f 72 6d 1f 3f 09 b7 c2 bd 26 17 52 bf
       1.0094229 0.62276375 -0.095075674 -0.8206657
0002c0 88 d5 f8 be 2b 50 9e bf c8 37 19 bf 2d 4f 85 bf
       -0.4860041 -1.2368215 -0.5985074 -1.0414788
0002d0 ec ec 12 bf f9 cd 87 3f 1a 4a 26 bf 17 df 83 bf
       -0.57392764 1.0609733 -0.6495682 -1.0302457
0002e0 bc 58 04 3f 3e 98 44 bf 99 c6 ea 3e 6c 5f d1 be
       0.516979 -0.76794803 0.45854643 -0.40893114
0002f0 6a 91 af 3f 09 b0 4d bf c3 a2 80 bf 55 18 23 bf
       1.3716252 -0.80346733 -1.0049671 -0.63709
000300 f7 5e aa bf 3f e5 87 bf f6 36 a9 bd 4d 4d 95 3f
       -1.3310231 -1.0616835 -0.08262436 1.1664215
000310 ab 8e 4d 3f 03 fe 49 3f 59 79 2b 3f 26 df 9c 3f
       0.8029582 0.78903216 0.66982037 1.22556

bias f4 [10]
000000 3d a3 50 3e 11 77 e3 3e a3 71 cd 3e 6c 57 e1 be
       0.2037477 0.44426778 0.4012576 -0.4401201
000010 59 84 29 3f 3c 68 11 3f ee c5 69 bf a6 76 0b 3e
       0.6621757 0.56799674 -0.9131764 0.1361948
000020 eb a6 21 3f 3b 2f 85 bf
       0.6314532 -1.0405039

weight f4 [1, 10]
000000 21 ec ba 3f ea 00 eb be 5a 5b 28 bf 28 92 a9 3f
       1.4603311 -0.45899135 -0.6576439 1.3247728
000010 dc 45 64 bf 27 a6 8b bf 5e 21 cc 3f 07 13 bf 3f
       -0.89169097 -1.0910081 1.5947683 1.4927682
000020 30 44 39 bf 34 ae 73 3f
       -0.7236967 0.9518769
