models/neural_2layers_sigmoid2.pth (torch, 3351 bytes, 5 tensors)

weight f4 [10, 1]
000000 8f 5e 6f 3f d7 4e 3c 3f 02 e6 87 3f 04 df 3d bf
       0.9350366 0.735578 1.0617068 -0.7416842
000010 67 0f 66 3f 79 fb 0f bf 84 00 dc 3b 62 84 77 3f
       0.8986725 -0.5624309 0.0067139287 0.96686375
000020 90 56 0d bf 52 83 df be
       -0.5521021 -0.43654877

bias f4 [10]
000000 c9 23 b8 bf c3 a9 55 bf be f1 e6 bf 93 c7 54 3f
       -1.4385921 -0.8346216 -1.8042524 0.83117026
000010 7d c8 af bf c6 08 3a 3e 76 3b ef 3e c0 a9 cd 3e
       -1.3733059 0.1816741 0.46725053 0.4016857
000020 02 04 7f 3f 6f 1f 74 3f
       0.9961549 0.95360464

weight f4 [5, 10]
000000 13 50 64 bf 4a d0 8c be ea 3f 33 bf b4 f3 52 3f
       -0.89184684 -0.27502662 -0.700194 0.8240311
000010 89 94 9d bf 54 a6 82 3f e9 17 22 3f 61 81 d6 3c
       -1.2310954 1.0207009 0.63317734 0.02618474
000020 ec 02 5e bd 2d 2e ae 3e 2a b4 71 3f a2 ed 4d 3f
       -0.054202005 0.34019604 0.94415534 0.80440724
000030 9d 8a be 3f 3b e8 63 bf 10 34 8d 3f 1c b5 a9 be
       1.4886051 -0.8902623 1.1031513 -0.33145988
000040 0e 7f 88 bd 5a 17 8a be c0 ce a3 bf 2b 0b 8a bf
       -0.06664859 -0.2697094 -1.279747 -1.0784658
000050 58 28 98 3f bf 20 55 3d 3a 90 92 3f d6 37 a8 bf
       1.1887312 0.052033182 1.1450264 -1.314204
000060 45 ca 88 3f 9c a3 27 bf 63 f5 04 bf 62 94 c2 be
       1.0686728 -0.65484023 -0.5193693 -0.38003832
000070 0e 2a c8 bd af 9a f3 bd a2 0c b1 3f 5b 35 17 3f
       -0.09773646 -0.11894738 1.383198 0.5906579
000080 24 25 93 3f 6f b1 19 bf 7b 7f 99 3f 97 f4 84 bf
       1.149571 -0.6003637 1.1992029 -1.0387143
000090 27 96 1e be d6 1f ec be 1a ab 08 bf df 7a 60 bf
       -0.15486966 -0.4611804 -0.5338608 -0.87687486
0000a0 32 09 a7 be 5a 8a 38 bf f0 d9 9f bf 7e eb 18 3f
       -0.32624203 -0.7208611 -1.2488384 0.5973433
0000b0 26 3d ad bf f1 1c 28 3f 97 49 82 3e 42 21 a0 3e
       -1.3534286 0.6566916 0.2544677 0.31275374
0000c0 30 a7 8e 3f d5 ba e8 3e
       1.1144772 0.45455042

bias f4 [5]
000000 f8 02 19 3e 0b d5 15 bf 43 d5 94 be 00 41 25 bf
       0.14942539 -0.585282 -0.29068956 -0.6455231
000010 ce 4f 5f 3e
       0.21807787

weight f4 [1, 5]
000000 4c 99 b5 bf fb e4 c2 3f 81 30 b8 3f 3f a6 ba 3f
       -1.4187407 1.5226129 1.4389802 1.4581984
000010 34 d7 98 bf
       -1.1940675
